…
ment, erasing=0.4, crop_fraction=1.0, cfg=None, tracker=botsort.yaml, save_dir=runs/classify/v8n224
0: [34m[1mtrain:[0m /home/urso/yolo/drowsy_dataset/train... found 6117 images in 2 classes ✅ 
0: [34m[1mval:[0m /home/urso/yolo/drowsy_dataset/val... found 437 images in 2 classes ✅ 
0: [34m[1mtest:[0m /home/urso/yolo/drowsy_dataset/test... found 437 images in 2 classes ✅ 
0: Overriding model.yaml nc=1000 with nc=2
0: 
0:                    from  n    params  module                                       arguments                     
0:   0                  -1  1       464  ultralytics.nn.modules.conv.Conv             [3, 16, 3, 2]                 
0:   1                  -1  1      4672  ultralytics.nn.modules.conv.Conv             [16, 32, 3, 2]                
0:   2                  -1  1      7360  ultralytics.nn.modules.block.C2f             [32, 32, 1, True]             
0:   3                  -1  1     18560  ultralytics.nn.modules.conv.Conv             [32, 64, 3, 2]                
0:   4                  -1  2     49664  ultralytics.nn.modules.block.C2f             [64, 64, 2, True]             
0:   5                  -1  1     73984  ultralytics.nn.modules.conv.Conv             [64, 128, 3, 2]               
0:   6                  -1  2    197632  ultralytics.nn.modules.block.C2f             [128, 128, 2, True]           
0:   7                  -1  1    295424  ultralytics.nn.modules.conv.Conv             [128, 256, 3, 2]              
0:   8                  -1  1    460288  ultralytics.nn.modules.block.C2f             [256, 256, 1, True]           
0:   9                  -1  1    332802  ultralytics.nn.modules.head.Classify         [256, 2]                      
0: YOLOv8n-cls summary: 99 layers, 1,440,850 parameters, 1,440,850 gradients, 3.4 GFLOPs
0: Transferred 156/158 items from pretrained weights
0: [34m[1mAMP: [0mrunning Automatic Mixed Precision (AMP) checks with YOLOv8n...
0: [34m[1mAMP: [0mchecks passed ✅
0: [34m[1mtrain: [0mScanning /home/urso/yolo/drowsy_dataset/train... 6117 images, 0 corrupt: 100%|██████████| 6117/6117 [00:00<?, ?it/s][34m[1mtrain: [0mScanning /home/urso/yolo/drowsy_dataset/train... 6117 images, 0 corrupt: 100%|██████████| 6117/6117 [00:00<?, ?it/s]
…
