…
ent, erasing=0.4, crop_fraction=1.0, cfg=None, tracker=botsort.yaml, save_dir=runs/classify/v8m2242
0: [34m[1mtrain:[0m /home/urso/yolo/drowsy_dataset/train... found 6117 images in 2 classes ✅ 
0: [34m[1mval:[0m /home/urso/yolo/drowsy_dataset/val... found 437 images in 2 classes ✅ 
0: [34m[1mtest:[0m /home/urso/yolo/drowsy_dataset/test... found 437 images in 2 classes ✅ 
0: Overriding model.yaml nc=1000 with nc=2
0: 
0:                    from  n    params  module                                       arguments                     
0:   0                  -1  1      1392  ultralytics.nn.modules.conv.Conv             [3, 48, 3, 2]                 
0:   1                  -1  1     41664  ultralytics.nn.modules.conv.Conv             [48, 96, 3, 2]                
0:   2                  -1  2    111360  ultralytics.nn.modules.block.C2f             [96, 96, 2, True]             
0:   3                  -1  1    166272  ultralytics.nn.modules.conv.Conv             [96, 192, 3, 2]               
0:   4                  -1  4    813312  ultralytics.nn.modules.block.C2f             [192, 192, 4, True]           
0:   5                  -1  1    664320  ultralytics.nn.modules.conv.Conv             [192, 384, 3, 2]              
0:   6                  -1  4   3248640  ultralytics.nn.modules.block.C2f             [384, 384, 4, True]           
0:   7                  -1  1   2655744  ultralytics.nn.modules.conv.Conv             [384, 768, 3, 2]              
0:   8                  -1  2   7084032  ultralytics.nn.modules.block.C2f             [768, 768, 2, True]           
0:   9                  -1  1    988162  ultralytics.nn.modules.head.Classify         [768, 2]                      
0: YOLOv8m-cls summary: 141 layers, 15,774,898 parameters, 15,774,898 gradients, 41.9 GFLOPs
0: Transferred 228/230 items from pretrained weights
0: [34m[1mAMP: [0mrunning Automatic Mixed Precision (AMP) checks with YOLOv8n...
0: [34m[1mAMP: [0mchecks passed ✅
0: [34m[1mtrain: [0mScanning /home/urso/yolo/drowsy_dataset/train... 6117 images, 0 corrupt: 100%|██████████| 6117/6117 [00:00<?, ?it/s][34m[1mtrain: [0mScanning /home/urso/yolo/drowsy_dataset/train... 6117 images, 0 corrupt: 100%|██████████| 6117/6117 [00:00<?, ?it/s]
…
